src/varion_backend/src/model.onnx (onnx, 11501 bytes, 5 tensors)

sequential/output/MatMul/ReadVariableOp:0 f4 [32, 1]
000000 01 87 dd be e1 2b a5 3e 9e db b7 be 34 8d 21 be
       -0.43267062 0.3226004 -0.35909742 -0.15776521
000010 aa 88 9b be 44 f1 ff bd 76 80 1e be e6 04 aa be
       -0.30377704 -0.1249719 -0.15478691 -0.33206862
000020 d1 42 f0 bc c3 c0 a7 be 03 65 be bd b3 da a2 be
       -0.029328736 -0.32764253 -0.0929661 -0.3180748
000030 a3 0c e8 bd d6 fb 0e 3f 0b 0f 44 be 97 8a bc be
       -0.11330535 0.5585302 -0.19146363 -0.36824486
000040 c7 96 d6 3e 39 a4 1e 3f 3d 9f e2 be 6b be d0 3e
       0.4191191 0.61969334 -0.44262114 0.40770277
000050 90 ee d7 bd dd b2 2f 3f 30 9c 1a 3f 7e 7f 93 3e
       -0.10543549 0.686323 0.60394573 0.28808206
000060 6e 69 60 3e f1 0a 31 3e 5a 75 3e 3e ef e2 0e be
       0.21915218 0.1728933 0.18599454 -0.13953756
000070 9b 6c 9c be 8b a0 83 bd 58 d3 fa 3e 52 cc 8b 3e
       -0.3055161 -0.064271055 0.48989367 0.27304322

sequential/input/MatMul/ReadVariableOp:0 f4 [5, 64]
000000 7c 90 58 3c d4 f0 08 3d a9 0d 30 3e c8 f5 c8 3c
       0.0132180415 0.033432797 0.17192711 0.02453126
000010 e7 76 9d 3e ea ee 0b bd bc 8f 23 3d 4b ca a4 3e
       0.30754778 -0.034163393 0.039931998 0.32185587
000020 9c 9d eb bd 29 16 f1 bd 06 38 82 bd e5 e8 61 be
       -0.11504671 -0.11771805 -0.06358342 -0.22061498
000030 c7 65 c6 3e 17 34 34 be 9c eb 95 3d f0 ec 52 3e
       0.38749525 -0.17597996 0.073203295 0.20598197
000040 f5 08 32 3d 99 ad bd 3e 53 7f 87 3e 4a d3 4e 3e
       0.043465573 0.37046507 0.26464328 0.20197788
000050 c4 e4 30 bd ea 26 66 bd 48 3c 39 bd e7 40 5a bd
       -0.043186918 -0.056189455 -0.045223504 -0.053284552
000060 67 6b 7b 3c a7 94 84 bd f3 4a 82 3e 12 34 14 3e
       0.015345431 -0.06473666 0.25447807 0.14472988
000070 3e 6e a7 be 2f 12 3e bd cd 9d 96 3e 81 57 8f bc
       -0.32701296 -0.04640406 0.29417267 -0.01749778
000080 cd 1c 23 be f9 56 66 be 6b 89 44 bd 5c fc 0b be
       -0.15928955 -0.22494115 -0.047982614 -0.13670486
000090 c0 26 24 be 4e a3 a7 bd 60 a9 94 be 17 bb 48 be
       -0.16030407 -0.08185445 -0.29035473 -0.19602619
0000a0 51 71 5c be 0e 27 59 be c3 b5 90 3e 56 eb 24 3d
       -0.21527602 -0.21206304 0.28263673 0.040263496
0000b0 de c0 e8 3d b2 56 74 3e 39 9f 20 3e cc f5 78 be
       0.113649115 0.23861197 0.15685739 -0.24312514
0000c0 9d 5e 6f be cb 53 df 3d 66 cc a8 bc 1c 4e 70 bd
       -0.23375936 0.10904654 -0.020605277 -0.05866824
0000d0 5e 92 61 3e ec d8 25 3d b1 1b 11 3e 6b 02 c9 bd
       0.22028491 0.040490076 0.1417072 -0.09814914
0000e0 9f db 19 be ea bb 0e 3e 4a 44 05 3e 88 70 5b 3e
       -0.15025185 0.13938871 0.13014331 0.21429646
0000f0 6f 74 6f be a5 ca 81 bd 91 99 0a 3e 25 bb 9f bd
       -0.2338426 -0.063374795 0.13535143 -0.07799367
000100 28 93 0c bd 68 37 d8 3e 20 96 95 3e 4e 38 bc 3e
       -0.034320027 0.42229772 0.292161 0.36761707
000110 05 78 04 be 21 1e 96 be 2c ec a5 3e 47 74 a7 3e
       -0.12936409 -0.29319862 0.32406747 0.327059
000120 f8 95 ba be 43 dc a8 3e 69 8c b9 3e 18 2f 97 be
       -0.36442542 0.32980546 0.36239937 -0.29528117
000130 07 5e 23 3e 4a 12 9a 3e 1b 3d 1f be a0 d8 37 be
       0.15953837 0.30092078 -0.15550654 -0.1795373
000140 cb 6f 70 3d 21 51 a7 bc 0f 1f 62 3d 54 c4 bb be
       0.058700364 -0.020424427 0.0552054 -0.36673224
000150 1f 11 34 bd f0 a6 14 3c 62 a1 92 3b 31 04 9e bb
       -0.04396164 0.009073004 0.0044748047 -0.004822277
000160 91 03 e6 3d 39 59 82 be 45 f2 8a 3d d5 3f 74 bd
       0.11231149 -0.25458696 0.067844905 -0.059631187
000170 6a 67 53 be 64 ce 49 bd 92 f6 4b be ce af f9 3b
       -0.20644918 -0.049269095 -0.19918278 0.0076198345
000180 5a 26 a9 be f1 98 b4 bd 56 2b 83 be 6a 7f d0 3e
       -0.33037072 -0.08818234 -0.25619 0.4072221
000190 7a ef 09 bd e8 d3 44 3e 24 4f d2 3c 52 43 93 be
       -0.03367565 0.19221461 0.025672503 -0.287623
0001a0 da 3d d6 3e 6e d4 aa be 42 3f 97 3e 4a 47 33 3e
       0.41844064 -0.33365196 0.2954045 0.17507663
0001b0 09 3d a3 3c 7c 44 55 be f9 01 10 be fe e2 f2 be
       0.019926565 -0.20826906 -0.14063253 -0.47438806
0001c0 de c7 99 be b5 0e a7 3e e5 0c a3 be 4d 45 a5 3d
       -0.300353 0.32628408 -0.31845775 0.08069859
0001d0 c1 f3 72 3d f7 8c 55 be 63 5a 34 bb dd cb f1 bd
       0.059314493 -0.20854555 -0.0027519695 -0.11806462
0001e0 71 48 8d 3d ad 8b cd be 2b cc 36 3e a1 f9 cb be
       0.06898583 -0.40145627 0.17851321 -0.3983889
0001f0 6b 7d 9f be 9e 1b 06 be 9d 62 45 be 7c 51 d5 bd
       -0.31150374 -0.13096473 -0.19275899 -0.104159325
000200 c8 a5 0b 3e 4a ff 08 3e bb cd 87 be 7c 3a 6a be
       0.1363746 0.13378635 -0.26524147 -0.22873873
000210 4c e6 68 3d 64 46 80 3d 9f f3 31 3e f6 97 c9 bd
       0.056860253 0.06263426 0.1737809 -0.098434374
000220 e1 86 88 3e 37 b2 74 be f3 59 2f be 2c 64 26 3e
       0.26665404 -0.23896109 -0.17124157 0.1624915
000230 40 20 0a 3e bf 58 75 be be a0 1e 3e 99 34 00 be
       0.13488865 -0.23959635 0.15491006 -0.12520064
000240 65 64 fe 3b 57 7d 5f be 8e 5d 66 be 31 bc d0 bd
       0.007763433 -0.21825157 -0.22496626 -0.10192145
000250 7a d0 bb bc 68 f1 23 be ef bf 72 be ce 6d 99 3c
       -0.022926558 -0.16010058 -0.2370603 0.018729117
000260 ee 35 95 be 10 e2 11 be 09 f0 a9 3c a3 3f ba bd
       -0.29142708 -0.14246392 0.02074434 -0.09094169
000270 2d 78 72 3e 4c a0 67 bd 68 c7 06 3e 13 37 b4 bc
       0.23678656 -0.056549355 0.13162005 -0.021998918
000280 7e b3 5e 3e 8c 4b f2 3d b6 95 cf 3d 81 cb d9 bd
       0.21748158 0.11830816 0.10135977 -0.106345184
000290 51 44 13 be da 3d 44 3e 21 93 52 bc 29 c0 34 3d
       -0.1438153 0.1916422 -0.012852461 0.04412857
0002a0 21 56 f0 3c 65 6f 25 bd 57 ad 38 3e f4 32 a4 3d
       0.029337944 -0.040389437 0.18034874 0.08017531
0002b0 d5 ed 19 be cc bc 9c 3e 4d 63 bb bd a9 0c 1c 3e
       -0.15032132 0.3061279 -0.091497995 0.15239204
0002c0 a7 80 87 3e cc 80 8b bd 1e 2a c0 bd e5 36 63 3d
       0.2646534 -0.068116754 -0.09383033 0.055472273
0002d0 4c 79 5a be 8f 21 a4 3d 17 20 4b 3e 37 37 e3 bc
       -0.21335334 0.08014213 0.1983646 -0.02773629
0002e0 7e fb ba bd 62 c9 4b 3e 34 59 1e 3e 74 24 31 3e
       -0.091299996 0.1990104 0.15463716 0.17299062
0002f0 2c 26 77 3d 91 50 1f 3d 53 2a c7 3c 9d 59 a7 3d
       0.060339138 0.038895193 0.024312174 0.08171389
000300 55 12 a5 3e be 21 97 3e f0 4c dd bd e3 e8 a3 3e
       0.3224055 0.2951793 -0.1080569 0.32013616
000310 da 7a 53 be 36 63 5d 3e 3c ec 8e 3e c8 df c3 3e
       -0.20652333 0.21619877 0.27914608 0.3825667
000320 68 f6 49 3e 3e a8 76 3e be 78 2b be 78 1a ca bd
       0.19722903 0.24087617 -0.16745278 -0.0986833
000330 51 a4 db bd 27 10 e8 bd 50 73 84 bc 73 f4 c3 bc
       -0.107247 -0.11331206 -0.016168267 -0.023920273
000340 9d ef 90 be 9a 5e 74 3e 57 6b 19 3e c4 5b ab 3d
       -0.2830781 0.23864213 0.14982353 0.08367112
000350 3a ca 8b be fa f8 b4 bd e7 a9 62 3d 4d 43 d6 be
       -0.27302724 -0.08836551 0.055337813 -0.4184822
000360 86 e9 02 be d0 0b b0 3e 8d 2d c2 3e 62 ac da bd
       -0.12784395 0.34384012 0.37925377 -0.10677411
000370 9c cc 8a 3d be 62 82 be 4e 93 8f 3e 67 9e d9 be
       0.067773074 -0.2546596 0.28042072 -0.42503664
000380 c3 35 ed bd f1 af de be 3a e4 81 3e a3 45 84 3d
       -0.1158252 -0.43493608 0.25369436 0.06458595
000390 20 f3 54 3e da 23 de be 32 f8 e8 bd 6e 9a c4 bd
       0.2079587 -0.43386728 -0.113754645 -0.095997676
0003a0 3a d8 b7 3e 9c 9f 20 3d e5 37 81 3e b4 32 bf be
       0.35907155 0.039214715 0.25237957 -0.3734337
0003b0 8c 26 0a ba 5c 75 4c bd 8f 05 bd be c6 bc 4c 3e
       -0.0005270026 -0.04991661 -0.36918303 0.19993886
0003c0 09 14 80 3e eb fa f0 bc 10 ff 6e 3e 4c 5c dc 3d
       0.25015286 -0.029416522 0.23339486 0.10759792
0003d0 f0 d6 c3 bd 94 88 f3 bd 1a b7 3c 3e 74 7a 7e be
       -0.095624804 -0.118912846 0.18429223 -0.248514
0003e0 21 08 51 3e cb d6 84 bc 85 a3 07 bd 0c 0d b7 3e
       0.20413257 -0.016215703 -0.03311493 0.3575214
0003f0 45 90 53 3e e5 cb 66 be a3 68 c2 3e be fb db be
       0.20660503 -0.22538717 0.37970456 -0.42965502

sequential/input/BiasAdd/ReadVariableOp:0 f4 [64]
000000 ab ee ef 3d 3f 75 44 3e b4 e6 24 3e 0c 7f 1d 3e
       0.11715444 0.19185351 0.16103631 0.15380496
000010 86 f0 1d 3d 58 c8 2b 3e 18 84 ec 3d 67 8e 0d 3e
       0.03855946 0.16775644 0.115486324 0.13823853
000020 f1 c6 1c 3e c4 d3 dd 3d 33 2d 3f bd 53 cf c2 bc
       0.15310265 0.10831407 -0.046673965 -0.0237805
000030 89 ba 22 3e d1 27 c6 bc d5 b3 3c 3d 12 41 27 3e
       0.1589147 -0.024188908 0.04606994 0.16333416
000040 c9 0c a1 bd c8 e0 0c 3e 6b 7f ef 3d 39 5d 10 3e
       -0.07863767 0.13757622 0.11694225 0.14098062
000050 da 86 2d 3d 09 d1 95 3d 77 83 bb 3d a8 87 7d 3d
       0.042364933 0.07315261 0.09155934 0.06189695
000060 58 64 06 bd dd 76 e0 3d 86 db 4c 3e 7b ff 70 bc
       -0.03281054 0.10960171 0.20005617 -0.014709349
000070 18 87 11 3e 93 a8 92 3b 64 9a 0b 3e 5d 83 1c 3d
       0.1421169 0.004475662 0.13633114 0.038211215
000080 35 8e f8 3d bb 22 46 3d 32 f8 2b 3c f4 5c 86 3d
       0.12136499 0.048372965 0.010496186 0.06560698
000090 ca f1 14 3e d4 0f b3 3d d9 9f a7 3b 27 81 02 3e
       0.1454536 0.08743253 0.005115491 0.1274458
0000a0 e8 02 09 3e 5b 07 31 3d b9 de 00 3e 88 f9 e7 3d
       0.13380015 0.043219905 0.12584962 0.11326891
0000b0 49 b1 76 bd 02 bc f3 3d 8d e1 87 3d 45 9f 10 3e
       -0.060227666 0.11901094 0.06634817 0.14123257
0000c0 26 a9 08 3e 1a d8 45 3d b2 6a 3f 3e 0b 6a fa bc
       0.13345775 0.048301794 0.18693045 -0.030568143
0000d0 1a ea b6 bb bb fe 4a bd 7b 16 39 bd 89 68 ad 3c
       -0.0055821063 -0.049559336 -0.045187455 0.02116801
0000e0 cc 88 5c bd a7 3e 0a 3e 4e bc 73 bc 98 b3 fd 3d
       -0.053841397 0.13500462 -0.014876438 0.123877704
0000f0 6b 2c 2c 3e e8 5e 24 3d 89 ff 2e 3e 1a 58 88 3d
       0.16813819 0.040129572 0.17089666 0.06657429

sequential/hidden/MatMul/ReadVariableOp:0 f4 [64, 32]
000000 d6 6f b6 3c ea d6 fe 3d c7 6c 2f 3d cd 8f 18 be
       0.022270124 0.12443335 0.042828348 -0.14898606
000010 fd b4 34 be a1 62 fb bd 51 6d 5a 3e a3 62 6b 3d
       -0.17647167 -0.12274671 0.21330763 0.057467114
000020 49 ac 18 bd 06 8d 40 be 5f 1d c2 bd 85 0a d4 bd
       -0.03727368 -0.18803796 -0.09478258 -0.10353569
000030 62 9c 0e bd f2 c7 ef bd c1 0e da bd 8b c0 4c be
       -0.034817107 -0.117080584 -0.10647345 -0.19995324
000040 d6 2b 31 bd 6f ca 61 3e ad e1 b4 bb 8a 5f a1 3e
       -0.043254696 0.22049879 -0.0055200667 0.31518203
000050 41 36 17 be 93 b5 83 3e 43 bf 5a 3e 82 bb 77 3e
       -0.1476679 0.25724468 0.21362023 0.24192622
000060 ad 5b b2 3e 14 1b e4 3c 6c 27 3f 3e ee 7a 05 be
       0.34835568 0.027844943 0.18667382 -0.13035175
000070 8b 9e 26 3e d2 85 3b be d9 cc 04 3e ce d1 29 3e
       0.16271417 -0.18312767 0.12968768 0.1658394
000080 fa 4a 94 be 7b 45 ce 3d a4 fd b7 bd db f4 b3 be
       -0.28963453 0.10071846 -0.08983925 -0.35147747
000090 f6 34 f1 bc 2b 24 9b 3d f6 73 9d be 86 24 64 be
       -0.029444199 0.07575258 -0.30752534 -0.22279558
0000a0 1a 70 41 be c5 da 5f bd 80 a1 0e be e3 29 1a 3e
       -0.1889042 -0.054651994 -0.13928795 0.15055041
0000b0 48 10 64 be 79 74 3a 3e fb 33 e5 3d cc c3 32 3c
       -0.22271836 0.18208493 0.11191555 0.010910939
0000c0 9e 4a cd bd e4 49 ca 3e f1 89 a3 be 5b 07 ea 3d
       -0.10023998 0.395095 -0.31941178 0.11427184
0000d0 a6 72 45 be 99 cf a4 3e 67 f0 c1 3d b7 07 cf bc
       -0.19282016 0.32189634 0.09469681 -0.025272233
0000e0 a7 f3 67 3e 1f 41 82 3e c5 9c c0 3e 32 dc 25 bd
       0.2265154 0.25440308 0.37619606 -0.040493198
0000f0 29 45 4e bd 80 3b 3a be 5d f7 2a bc ed 49 1b 3d
       -0.050358925 -0.1818676 -0.010434953 0.037912298
000100 2d 12 be 3d f3 f1 69 3e 1f d6 56 be 55 79 2b 3e
       0.092808105 0.22846203 -0.20980118 0.16745503
000110 49 4e 68 3c 56 63 ce 3c ff 5e 5c 3e 1c bc 5a 3d
       0.014178821 0.025193851 0.21520613 0.05340205
000120 c4 09 00 be 0d 15 08 3d 6e a1 6f 3e 23 81 b5 3d
       -0.12503725 0.0332232 0.23401424 0.088625215
000130 c7 92 57 3e 92 a8 0a be c4 0c 8d 3d 2c a0 f0 3d
       0.21052085 -0.13540867 0.068872005 0.117493
000140 5d a5 e6 3b 94 59 25 3e 96 87 94 3e fa 20 7a 3e
       0.007038756 0.16147453 0.29009694 0.24426642
000150 b7 9a 16 3d b5 00 b5 3d a0 84 f6 bd b3 7a 65 3e
       0.03676864 0.088380255 -0.12037015 0.22410087
000160 29 77 a2 3d 43 c4 80 3d 08 d9 0f bc bc 67 68 3e
       0.07932884 0.06287434 -0.008779772 0.22695822
000170 38 30 90 ba c2 73 a4 bd 36 ad d0 3d 84 62 09 3e
       -0.0011000698 -0.080298916 0.10189287 0.13416487
000180 14 54 26 bd dc 7d 8d bd 5f 0e 70 bd 84 97 78 be
       -0.040607527 -0.069087714 -0.058607455 -0.24276549
000190 de 13 84 be c9 d3 0f be 84 c4 1a 3e ca e4 78 3d
       -0.25796407 -0.14045633 0.15114027 0.060765065
0001a0 30 70 c3 3c ce 98 ec bd e1 5f 4b 3d 02 34 0b be
       0.023857206 -0.11552583 0.049651984 -0.13594058
0001b0 18 6c 8b bd ff 1d 6c 3e 5d ea 70 be 72 c5 44 be
       -0.068077266 0.23058318 -0.23526902 -0.19215944
0001c0 70 7b b2 3e b9 fa 88 bd cf 2d f1 bd 0d 9f 71 3e
       0.348598 -0.066884466 -0.117763154 0.2359583
0001d0 f5 91 db bd 5d e0 c4 3e 73 07 5b bc 6d 96 7b 3e
       -0.107211985 0.38452426 -0.013368475 0.24569102
0001e0 06 af 79 3e 49 28 bf bc a5 85 74 3e b4 f2 02 be
       0.24383172 -0.02333464 0.23879106 -0.12787896
0001f0 8d 30 58 be 82 06 1c 3e 90 ab 3b 3e 5c 17 f5 3c
       -0.2111227 0.15236858 0.18327165 0.029918365
000200 d7 3d 74 3e 30 5b 25 be aa 49 7a bd c7 16 3a 3e
       0.23851715 -0.16148067 -0.061105408 0.18172751
000210 92 54 73 3e 6c 00 7b 3e 1e b1 5f 3e 09 86 0f 3e
       0.2376273 0.2451188 0.21844909 0.14015974
000220 a1 47 9b 3d 50 e3 53 bd b3 cb a2 3d 69 b0 68 be
       0.075820215 -0.051730454 0.07949009 -0.22723545
000230 af 00 05 be c1 8a 41 3b 3d 85 8f bc a2 34 4a be
       -0.12988542 0.0029532167 -0.017519588 -0.1974664
000240 6d 60 0c 3c 9c 9a 07 be 3c 9d a7 bb 05 0a 35 be
       0.008567912 -0.13242573 -0.0051151793 -0.17679603
000250 38 8f 75 3e 03 b4 92 be e2 d1 01 bd 48 f2 de 3d
       0.23980415 -0.28652963 -0.0316943 0.10886055
000260 5d 82 d0 3d 1f 6b d3 3b de 0a 3a 3e 29 77 57 be
       0.10181115 0.006451979 0.18168208 -0.2104155
000270 13 2f 17 be 34 6d 8f be 70 32 e9 bd b2 54 32 be
       -0.14764051 -0.28013003 -0.11386573 -0.17415121
000280 5c c2 bb 3c 29 fc fa 3d f3 3f 5c 3e b2 c9 57 3d
       0.022919826 0.12255127 0.2150877 0.052682586
000290 02 15 50 bd 2a 8c ac bd 3a 00 4a be 11 80 8c bd
       -0.050801285 -0.08425172 -0.19726649 -0.06860364
0002a0 c3 a3 31 3e b6 4c 73 bc 1b 60 17 be a2 ae 4f be
       0.17347626 -0.014849832 -0.14782755 -0.20281461
0002b0 f7 74 1e 3e c3 0d a8 3e 45 8b 14 be 54 58 36 be
       0.15474306 0.32823 -0.14506252 -0.17807132
0002c0 7c 82 cc bd e3 31 67 3d e8 b7 2b bc eb ae d7 3e
       -0.099858254 0.05644406 -0.010480858 0.4212564
0002d0 56 99 e5 39 2a ef 8c 3e e4 76 03 3e 10 1b 5c 3d
       0.00043792528 0.27526218 0.12838322 0.053736746
0002e0 d4 82 aa 3e 71 f8 e0 3d 4e 73 c9 3e f8 3a 0b 3e
       0.3330294 0.109848864 0.39345783 0.13596714
0002f0 23 7e 2f bd 34 d8 ec bd b7 28 83 3d 75 d8 7c 3e
       -0.042844903 -0.11564675 0.0640425 0.24691947
000300 fe cc 89 be 6d 09 9b 3e b2 b4 20 3e 43 d4 19 3e
       -0.2691421 0.3028063 0.1569393 0.15022378
000310 90 52 ed bd ef 08 20 bd d6 c8 9f bd ad 5c d8 3d
       -0.11588013 -0.03907102 -0.07801978 0.105645515
000320 d7 f6 04 be 98 57 87 3d 50 4e f7 3d 8e d3 f7 bd
       -0.12984787 0.06608504 0.12075484 -0.12100898
000330 0e 15 16 bd 8f a2 68 3d a0 ed eb bd 68 c8 90 3d
       -0.036641173 0.056795653 -0.11519933 0.070694745
000340 e7 7e 7a bc 8a 10 5e 3e 6f 19 1c be 2e 0a c2 bc
       -0.015289045 0.21685997 -0.15244077 -0.023686495
000350 c1 e1 6b be 00 f5 d4 bc 3f bb 4c 3e 7a 68 94 bd
       -0.23035337 -0.025995731 0.19993304 -0.0724649
000360 a2 dc 4d 3e 1d 89 a6 3e fa f0 1d 3e fe b8 06 bd
       0.20103696 0.32526484 0.15423957 -0.032891266
000370 7a 74 b6 3c 18 a6 e7 bd 3c b4 a7 3e 54 67 6c 3e
       0.022272337 -0.11310977 0.32754695 0.23086292
000380 b8 db 71 bd 7d 99 0b 3e 8e 84 23 3e b5 5c 94 be
       -0.05904743 0.1363277 0.15968534 -0.2897698
000390 08 7b 17 3e 8e aa d8 bd eb f4 7d bd ab 9a c0 3d
       0.14793026 -0.10579406 -0.06200115 0.094045006
0003a0 7b fd 88 bd d2 9e 69 be fa b2 97 be de cd 1e be
       -0.066889726 -0.22814491 -0.29628736 -0.1550822
0003b0 72 f0 51 bd 1c ad 45 bd 77 73 55 be 9b 78 91 bd
       -0.051254697 -0.048260793 -0.20844828 -0.07103082
0003c0 49 bd 82 3e bc ae 39 3e 8e b2 7e be 7e 61 ae 3e
       0.25535038 0.18133062 -0.248728 0.34058756
0003d0 ed 62 c6 bb 3b 48 7e 3d 6a 66 b4 3e da 69 2b 3e
       -0.0060542733 0.062080603 0.35234386 0.16739598
0003e0 48 e4 81 3e 9a 51 3b 3e 40 b0 2f b8 10 6e 3c be
       0.25369477 0.18292847 -4.1887397e-05 -0.1840136
0003f0 32 dc 87 be e7 1e 81 be 98 0a aa 3e 33 71 63 3d
       -0.26535183 -0.2521889 0.33211207 0.055527877

sequential/hidden/BiasAdd/ReadVariableOp:0 f4 [32]
000000 9b d3 b5 3d 4e 0d c9 3d 5d d4 05 bd cc e4 cf 3d
       0.08878251 0.09816991 -0.03267323 0.101510614
000010 f5 6b cb 3d 2b 3a 7a 3d 4d 8e ad 3d 50 a7 8a 3a
       0.099327005 0.06109063 0.08474407 0.0010578427
000020 d9 7c 1f bd 77 7a 79 3c a0 36 83 3d e8 0e 42 bc
       -0.038937423 0.015226952 0.06406903 -0.011844374
000030 d6 48 ce 3c 06 9e 82 3d 47 90 f8 bc 34 d2 51 3d
       0.025181215 0.06377797 -0.030342234 0.051225856
000040 2f de 75 3d d3 20 e7 3d 74 ab db 3d 3f e6 a3 3d
       0.060026344 0.112855576 0.107260615 0.080029
000050 80 c4 13 3d 3d bf cf 3d 1e dc d8 3d 6e a3 b2 3d
       0.03607607 0.10143898 0.10588859 0.08722578
000060 16 c4 28 3e e7 fd d1 3d 90 ec e5 3d ac 96 fb bc
       0.16481051 0.10253506 0.11226761 -0.030711494
000070 ee 49 f3 3c 40 f2 db bc f0 b7 15 3e 66 99 e2 3d
       0.029698338 -0.026848912 0.14620948 0.11064415
